Model: "sequential"
_________________________________________________________________
Layer (type)                 Output Shape              Param #
=================================================================
dense (Dense)                (None, 30)                150
_________________________________________________________________
dense_1 (Dense)              (None, 60)                1860
_________________________________________________________________
dense_2 (Dense)              (None, 60)                3660
_________________________________________________________________
dense_3 (Dense)              (None, 30)                1830
_________________________________________________________________
dense_4 (Dense)              (None, 2)                 62
=================================================================
Total params: 7,562
Trainable params: 7,562
Non-trainable params: 0
_________________________________________________________________
2021-06-25 13:42:35.262374: I tensorflow/compiler/mlir/mlir_graph_optimization_pass.cc:116] None of the MLIR optimization passes are enabled (registered 2)
episode: 0 	score: 21.05 	global_step: 1263 	epsilon: 0.9962181635409519 	learning_rate_decay: 0.01
…
